seed,dataset,architecture,optimizer,unique_id,epochs,batch size,training,validation,weights,model
42,"torch.Size([982, 468])","[Sequential(
  (0): Linear(in_features=468, out_features=256, bias=True)
  (1): SiLU()
  (2): Linear(in_features=256, out_features=128, bias=True)
  (3): SiLU()
  (4): Linear(in_features=128, out_features=64, bias=True)
  (5): SiLU()
  (6): Linear(in_features=64, out_features=8, bias=True)
)]","Adam (
Parameter Group 0
    amsgrad: False
    betas: (0.9, 0.999)
    capturable: False
    differentiable: False
    eps: 1e-08
    foreach: None
    fused: None
    lr: 0.001
    maximize: False
    weight_decay: 0
)",d2a234b9,30,256,"[… ","[… ","[… ",models/model_d2a234b9.pth
42,"torch.Size([982, 468])","[Sequential(
  (0): Linear(in_features=468, out_features=256, bias=True)
  (1): SiLU()
  (2): Linear(in_features=256, out_features=128, bias=True)
  (3): SiLU()
  (4): Linear(in_features=128, out_features=64, bias=True)
  (5): SiLU()
  (6): Linear(in_features=64, out_features=8, bias=True)
)]","Adam (
Parameter Group 0
    amsgrad: False
    betas: (0.9, 0.999)
    capturable: False
    differentiable: False
    eps: 1e-08
    foreach: None
    fused: None
    lr: 0.001
    maximize: False
    weight_decay: 0
)",6148cf25,30,256,"[… ","[… ","[… ",models/model_6148cf25.pth
42,"torch.Size([7827, 468])","[Sequential(
  (0): Linear(in_features=468, out_features=256, bias=True)
  (1): SiLU()
  (2): Linear(in_features=256, out_features=128, bias=True)
  (3): SiLU()
  (4): Linear(in_features=128, out_features=64, bias=True)
  (5): SiLU()
  (6): Linear(in_features=64, out_features=8, bias=True)
)]","Adam (
Parameter Group 0
    amsgrad: False
    betas: (0.9, 0.999)
    capturable: False
    differentiable: False
    eps: 1e-08
    foreach: None
    fused: None
    lr: 0.001
    maximize: False
    weight_decay: 0
)",5888b96f,30,1024,"[… ","[… ","[… ",models/model_5888b96f.pth
f3ea57f0,42,"torch.Size([7827, 468])","[Sequential(
  (0): Linear(in_features=468, out_features=256, bias=True)
  (1): SiLU()
  (2): Linear(in_features=256, out_features=128, bias=True)
  (3): SiLU()
  (4): Linear(in_features=128, out_features=64, bias=True)
  (5): SiLU()
  (6): Linear(in_features=64, out_features=8, bias=True)
)]","Adam (
Parameter Group 0
    amsgrad: False
    betas: (0.9, 0.999)
    capturable: False
    differentiable: False
    eps: 1e-08
    foreach: None
    fused: None
    lr: 0.001
    maximize: False
    weight_decay: 0
)",30,1024,"[… ","[… ","[… ",models/model_f3ea57f0.pth
42,"torch.Size([7827, 468])","[Sequential(
  (0): Linear(in_features=468, out_features=256, bias=True)
  (1): SiLU()
  (2): Linear(in_features=256, out_features=128, bias=True)
  (3): SiLU()
  (4): Linear(in_features=128, out_features=64, bias=True)
  (5): SiLU()
  (6): Linear(in_features=64, out_features=8, bias=True)
)]","Adam (
Parameter Group 0
    amsgrad: False
    betas: (0.9, 0.999)
    capturable: False
    differentiable: False
    eps: 1e-08
    foreach: None
    fused: None
    lr: 0.001
    maximize: False
    weight_decay: 0
)",00b0b9af,30,1024,"[… ","[… ","[… ",models/model_00b0b9af.pth
062b9b7a,42,"torch.Size([7827, 468])","[Sequential(
  (0): Linear(in_features=468, out_features=256, bias=True)
  (1): SiLU()
  (2): Linear(in_features=256, out_features=128, bias=True)
  (3): SiLU()
  (4): Linear(in_features=128, out_features=64, bias=True)
  (5): SiLU()
  (6): Linear(in_features=64, out_features=8, bias=True)
)]","Adam (
Parameter Group 0
    amsgrad: False
    betas: (0.9, 0.999)
    capturable: False
    differentiable: False
    eps: 1e-08
    foreach: None
    fused: None
    lr: 0.001
    maximize: False
    weight_decay: 0
)",30,1024,"[… ","[… ","[… ",models/model_062b9b7a.pth
42,"torch.Size([7827, 468])","[Sequential(
  (0): Linear(in_features=468, out_features=256, bias=True)
  (1): SiLU()
  (2): Linear(in_features=256, out_features=128, bias=True)
  (3): SiLU()
  (4): Linear(in_features=128, out_features=64, bias=True)
  (5): SiLU()
  (6): Linear(in_features=64, out_features=8, bias=True)
)]","Adam (
Parameter Group 0
    amsgrad: False
    betas: (0.9, 0.999)
    capturable: False
    differentiable: False
    eps: 1e-08
    foreach: None
    fused: None
    lr: 0.001
    maximize: False
    weight_decay: 0
)",d5b39953,30,1024,"[… ","[… ","[… ",models/model_d5b39953.pth
77faf0c1,42,"torch.Size([7827, 468])","[Sequential(
  (0): Linear(in_features=468, out_features=256, bias=True)
  (1): SiLU()
  (2): Linear(in_features=256, out_features=128, bias=True)
  (3): SiLU()
  (4): Linear(in_features=128, out_features=64, bias=True)
  (5): SiLU()
  (6): Linear(in_features=64, out_features=8, bias=True)
)]","Adam (
Parameter Group 0
    amsgrad: False
    betas: (0.9, 0.999)
    capturable: False
    differentiable: False
    eps: 1e-08
    foreach: None
    fused: None
    lr: 0.001
    maximize: False
    weight_decay: 0
)",30,1024,"[… ","[… ","[… ",models/model_77faf0c1.pth
5499b457,42,"torch.Size([2780146, 468])","[Sequential(
  (0): Linear(in_features=468, out_features=256, bias=True)
  (1): SiLU()
  (2): Linear(in_features=256, out_features=128, bias=True)
  (3): SiLU()
  (4): Linear(in_features=128, out_features=64, bias=True)
  (5): SiLU()
  (6): Linear(in_features=64, out_features=8, bias=True)
)]","Adam (
Parameter Group 0
    amsgrad: False
    betas: (0.9, 0.999)
    capturable: False
    differentiable: False
    eps: 1e-08
    foreach: None
    fused: None
    lr: 0.001
    maximize: False
    weight_decay: 0
)",30,1024,"[… ","[… ","[… ",models/model_5499b457.pth
b3ed58c1,42,"torch.Size([2934700, 468])","[Sequential(
  (0): Linear(in_features=468, out_features=256, bias=True)
  (1): SiLU()
  (2): Linear(in_features=256, out_features=128, bias=True)
  (3): SiLU()
  (4): Linear(in_features=128, out_features=64, bias=True)
  (5): SiLU()
  (6): Linear(in_features=64, out_features=8, bias=True)
)]","Adam (
Parameter Group 0
    amsgrad: False
    betas: (0.9, 0.999)
    capturable: False
    differentiable: False
    eps: 1e-08
    foreach: None
    fused: None
    lr: 0.001
    maximize: False
    weight_decay: 0
)",300,1024,"[… ","[… ","[… ",models/model_b3ed58c1.pth
ecd50224,42,"torch.Size([2934700, 468])","[Sequential(
  (0): Linear(in_features=468, out_features=256, bias=True)
  (1): SiLU()
  (2): Linear(in_features=256, out_features=128, bias=True)
  (3): SiLU()
  (4): Linear(in_features=128, out_features=64, bias=True)
  (5): SiLU()
  (6): Linear(in_features=64, out_features=8, bias=True)
)]","Adam (
Parameter Group 0
    amsgrad: False
    betas: (0.9, 0.999)
    capturable: False
    differentiable: False
    eps: 1e-08
    foreach: None
    fused: None
    lr: 0.001
    maximize: False
    weight_decay: 0
)",300,1024,"[… ","[… ","[… ",models/model_ecd50224.pth
7f65eaa4,42,"torch.Size([2934700, 468])","[Sequential(
  (0): Linear(in_features=468, out_features=256, bias=True)
  (1): SiLU()
  (2): Linear(in_features=256, out_features=128, bias=True)
  (3): SiLU()
  (4): Linear(in_features=128, out_features=64, bias=True)
  (5): SiLU()
  (6): Linear(in_features=64, out_features=8, bias=True)
)]","Adam (
Parameter Group 0
    amsgrad: False
    betas: (0.9, 0.999)
    capturable: False
    differentiable: False
    eps: 1e-08
    foreach: None
    fused: None
    lr: 0.001
    maximize: False
    weight_decay: 0
)",300,1024,"[… ","[… ","[… ",models/model_7f65eaa4.pth
4921cbf5,42,"torch.Size([2934700, 468])","[Sequential(
  (0): Linear(in_features=468, out_features=256, bias=True)
  (1): SiLU()
  (2): Linear(in_features=256, out_features=128, bias=True)
  (3): SiLU()
  (4): Linear(in_features=128, out_features=64, bias=True)
  (5): SiLU()
  (6): Linear(in_features=64, out_features=8, bias=True)
)]","Adam (
Parameter Group 0
    amsgrad: False
    betas: (0.9, 0.999)
    capturable: False
    differentiable: False
    eps: 1e-08
    foreach: None
    fused: None
    lr: 0.001
    maximize: False
    weight_decay: 0
)",300,1024,"[… ","[… ","[… ",models/model_4921cbf5.pth
