unique_id,seed,normalize_mean,normalize_std,dataset,architecture,optimizer,lr,weight_decay,epochs,batch size,best_epoch,best_val,best_train,training,validation,weights,model
defee4a4,42,"[… ","[… ","(2000000, 321)","[Sequential(
  (0): Linear(in_features=321, out_features=512, bias=True)
  (1): BatchNorm1d(512, eps=1e-05, momentum=0.1, affine=True, track_running_stats=True)
  (2): SiLU()
  (3): Linear(in_features=512, out_features=7, bias=True)
)]",Adam,0.001,0.0001,50,1024,50,8.204035291866381,10.413472193325388,"[… ","[… ",[],models/model_defee4a4.pth
038f7cad,42,"[… ","[… ","(2000000, 321)","[Sequential(
  (0): Linear(in_features=321, out_features=512, bias=True)
  (1): BatchNorm1d(512, eps=1e-05, momentum=0.1, affine=True, track_running_stats=True)
  (2): SiLU()
  (3): Linear(in_features=512, out_features=512, bias=True)
  (4): BatchNorm1d(512, eps=1e-05, momentum=0.1, affine=True, track_running_stats=True)
  (5): SiLU()
  (6): Linear(in_features=512, out_features=7, bias=True)
)]",Adam,0.001,0.0001,50,1024,48,2.8393395822875354,3.7331305141079016,"[… ","[… ",[],models/model_038f7cad.pth
44c3d710,42,"[… ","[… ","(2000000, 321)","[Sequential(
  (0): Linear(in_features=321, out_features=512, bias=True)
  (1): BatchNorm1d(512, eps=1e-05, momentum=0.1, affine=True, track_running_stats=True)
  (2): SiLU()
  (3): Linear(in_features=512, out_features=512, bias=True)
  (4): BatchNorm1d(512, eps=1e-05, momentum=0.1, affine=True, track_running_stats=True)
  (5): SiLU()
  (6): Linear(in_features=512, out_features=512, bias=True)
  (7): BatchNorm1d(512, eps=1e-05, momentum=0.1, affine=True, track_running_stats=True)
  (8): SiLU()
  (9): Linear(in_features=512, out_features=7, bias=True)
)]",Adam,0.001,0.0001,50,1024,35,1.8221195717247165,2.213316979593244,"[… ","[… ",[],models/model_44c3d710.pth
dce69bd1,42,"[… ","[… ","(2000000, 321)","[Sequential(
  (0): Linear(in_features=321, out_features=512, bias=True)
  (1): BatchNorm1d(512, eps=1e-05, momentum=0.1, affine=True, track_running_stats=True)
  (2): SiLU()
  (3): Linear(in_features=512, out_features=512, bias=True)
  (4): BatchNorm1d(512, eps=1e-05, momentum=0.1, affine=True, track_running_stats=True)
  (5): SiLU()
  (6): Linear(in_features=512, out_features=512, bias=True)
  (7): BatchNorm1d(512, eps=1e-05, momentum=0.1, affine=True, track_running_stats=True)
  (8): SiLU()
  (9): Linear(in_features=512, out_features=512, bias=True)
  (10): BatchNorm1d(512, eps=1e-05, momentum=0.1, affine=True, track_running_stats=True)
  (11): SiLU()
  (12): Linear(in_features=512, out_features=7, bias=True)
)]",Adam,0.001,0.0001,50,1024,43,1.7807410517517401,1.3971900291227062,"[… ","[… ",[],models/model_dce69bd1.pth
69b31f3b,42,"[… ","[… ","(2000000, 321)","[Sequential(
  (0): Linear(in_features=321, out_features=512, bias=True)
  (1): BatchNorm1d(512, eps=1e-05, momentum=0.1, affine=True, track_running_stats=True)
  (2): SiLU()
  (3): Linear(in_features=512, out_features=512, bias=True)
  (4): BatchNorm1d(512, eps=1e-05, momentum=0.1, affine=True, track_running_stats=True)
  (5): SiLU()
  (6): Linear(in_features=512, out_features=512, bias=True)
  (7): BatchNorm1d(512, eps=1e-05, momentum=0.1, affine=True, track_running_stats=True)
  (8): SiLU()
  (9): Linear(in_features=512, out_features=512, bias=True)
  (10): BatchNorm1d(512, eps=1e-05, momentum=0.1, affine=True, track_running_stats=True)
  (11): SiLU()
  (12): Linear(in_features=512, out_features=512, bias=True)
  (13): BatchNorm1d(512, eps=1e-05, momentum=0.1, affine=True, track_running_stats=True)
  (14): SiLU()
  (15): Linear(in_features=512, out_features=7, bias=True)
)]",Adam,0.001,0.0001,50,1024,40,1.6208470038005285,1.2165629650819405,"[… ","[… ",[],models/model_69b31f3b.pth
83a99f69,42,"[… ","[… ","(2000000, 321)","[Sequential(
  (0): Linear(in_features=321, out_features=256, bias=True)
  (1): BatchNorm1d(256, eps=1e-05, momentum=0.1, affine=True, track_running_stats=True)
  (2): SiLU()
  (3): Linear(in_features=256, out_features=7, bias=True)
)]",Adam,0.001,0.0001,50,1024,49,8.766781986976156,11.154685654003044,"[… ","[… ",[],models/model_83a99f69.pth
6f28d7fe,42,"[… ","[… ","(2000000, 321)","[Sequential(
  (0): Linear(in_features=321, out_features=256, bias=True)
  (1): BatchNorm1d(256, eps=1e-05, momentum=0.1, affine=True, track_running_stats=True)
  (2): SiLU()
  (3): Linear(in_features=256, out_features=256, bias=True)
  (4): BatchNorm1d(256, eps=1e-05, momentum=0.1, affine=True, track_running_stats=True)
  (5): SiLU()
  (6): Linear(in_features=256, out_features=7, bias=True)
)]",Adam,0.001,0.0001,50,1024,50,3.045365194885098,4.131203402861439,"[… ","[… ",[],models/model_6f28d7fe.pth
ddff92c7,42,"[… ","[… ","(2000000, 321)","[Sequential(
  (0): Linear(in_features=321, out_features=256, bias=True)
  (1): BatchNorm1d(256, eps=1e-05, momentum=0.1, affine=True, track_running_stats=True)
  (2): SiLU()
  (3): Linear(in_features=256, out_features=256, bias=True)
  (4): BatchNorm1d(256, eps=1e-05, momentum=0.1, affine=True, track_running_stats=True)
  (5): SiLU()
  (6): Linear(in_features=256, out_features=256, bias=True)
  (7): BatchNorm1d(256, eps=1e-05, momentum=0.1, affine=True, track_running_stats=True)
  (8): SiLU()
  (9): Linear(in_features=256, out_features=7, bias=True)
)]",Adam,0.001,0.0001,50,1024,28,2.2190319409175796,2.8915943240682624,"[… ","[… ",[],models/model_ddff92c7.pth
a8d2c530,42,"[… ","[… ","(2000000, 321)","[Sequential(
  (0): Linear(in_features=321, out_features=256, bias=True)
  (1): BatchNorm1d(256, eps=1e-05, momentum=0.1, affine=True, track_running_stats=True)
  (2): SiLU()
  (3): Linear(in_features=256, out_features=256, bias=True)
  (4): BatchNorm1d(256, eps=1e-05, momentum=0.1, affine=True, track_running_stats=True)
  (5): SiLU()
  (6): Linear(in_features=256, out_features=256, bias=True)
  (7): BatchNorm1d(256, eps=1e-05, momentum=0.1, affine=True, track_running_stats=True)
  (8): SiLU()
  (9): Linear(in_features=256, out_features=256, bias=True)
  (10): BatchNorm1d(256, eps=1e-05, momentum=0.1, affine=True, track_running_stats=True)
  (11): SiLU()
  (12): Linear(in_features=256, out_features=7, bias=True)
)]",Adam,0.001,0.0001,50,1024,21,1.826968706383997,2.3627334273709306,"[… ","[… ",[],models/model_a8d2c530.pth
9814fe74,42,"[… ","[… ","(2000000, 321)","[Sequential(
  (0): Linear(in_features=321, out_features=256, bias=True)
  (1): BatchNorm1d(256, eps=1e-05, momentum=0.1, affine=True, track_running_stats=True)
  (2): SiLU()
  (3): Linear(in_features=256, out_features=256, bias=True)
  (4): BatchNorm1d(256, eps=1e-05, momentum=0.1, affine=True, track_running_stats=True)
  (5): SiLU()
  (6): Linear(in_features=256, out_features=256, bias=True)
  (7): BatchNorm1d(256, eps=1e-05, momentum=0.1, affine=True, track_running_stats=True)
  (8): SiLU()
  (9): Linear(in_features=256, out_features=256, bias=True)
  (10): BatchNorm1d(256, eps=1e-05, momentum=0.1, affine=True, track_running_stats=True)
  (11): SiLU()
  (12): Linear(in_features=256, out_features=256, bias=True)
  (13): BatchNorm1d(256, eps=1e-05, momentum=0.1, affine=True, track_running_stats=True)
  (14): SiLU()
  (15): Linear(in_features=256, out_features=7, bias=True)
)]",Adam,0.001,0.0001,50,1024,40,1.8012640926302697,1.2303095734517635,"[… ","[… ",[],models/model_9814fe74.pth
e2a9fd12,42,"[… ","[… ","(2000000, 321)","[Sequential(
  (0): Linear(in_features=321, out_features=1024, bias=True)
  (1): BatchNorm1d(1024, eps=1e-05, momentum=0.1, affine=True, track_running_stats=True)
  (2): SiLU()
  (3): Linear(in_features=1024, out_features=7, bias=True)
)]",Adam,0.001,0.0001,50,1024,43,8.223729474203926,10.405317622269022,"[… ","[… ",[],models/model_e2a9fd12.pth
